Valid precision + execution provider combinations are: FP32 CPU, FP32 CUDA, FP16 CUDA, FP16 DML, INT4 CPU, INT4 CUDA, INT4 DML
Extra options: {}
GroupQueryAttention (GQA) is used in this model.
##########
ChatGLMForConditionalGeneration(
  (transformer): ChatGLMModel(
    (embedding): Embedding(
      (word_embeddings): Embedding(65024, 4096)
    )
    (rotary_pos_emb): RotaryEmbedding()
    (encoder): GLMTransformer(
      (layers): ModuleList(
        (0-27): 28 x GLMBlock(
          (input_layernorm): RMSNorm()
          (self_attention): SelfAttention(
            (query_key_value): Linear(in_features=4096, out_features=4608, bias=True)
            (core_attention): CoreAttention(
              (attention_dropout): Dropout(p=0.0, inplace=False)
            )
            (dense): Linear(in_features=4096, out_features=4096, bias=False)
          )
          (post_attention_layernorm): RMSNorm()
          (mlp): MLP(
            (dense_h_to_4h): Linear(in_features=4096, out_features=27392, bias=False)
            (dense_4h_to_h): Linear(in_features=13696, out_features=4096, bias=False)
          )
        )
      )
      (final_layernorm): RMSNorm()
    )
    (output_layer): Linear(in_features=4096, out_features=65024, bias=False)
  )
)
##########
ChatGLMModel(
  (embedding): Embedding(
    (word_embeddings): Embedding(65024, 4096)
  )
  (rotary_pos_emb): RotaryEmbedding()
  (encoder): GLMTransformer(
    (layers): ModuleList(
      (0-27): 28 x GLMBlock(
        (input_layernorm): RMSNorm()
        (self_attention): SelfAttention(
          (query_key_value): Linear(in_features=4096, out_features=4608, bias=True)
          (core_attention): CoreAttention(
            (attention_dropout): Dropout(p=0.0, inplace=False)
          )
          (dense): Linear(in_features=4096, out_features=4096, bias=False)
        )
        (post_attention_layernorm): RMSNorm()
        (mlp): MLP(
          (dense_h_to_4h): Linear(in_features=4096, out_features=27392, bias=False)
          (dense_4h_to_h): Linear(in_features=13696, out_features=4096, bias=False)
        )
      )
    )
    (final_layernorm): RMSNorm()
  )
  (output_layer): Linear(in_features=4096, out_features=65024, bias=False)
)
##########
Embedding(
  (word_embeddings): Embedding(65024, 4096)
)
##########
Embedding(65024, 4096)
Reading embedding layer
##########
RotaryEmbedding()
##########
GLMTransformer(
  (layers): ModuleList(
    (0-27): 28 x GLMBlock(
      (input_layernorm): RMSNorm()
      (self_attention): SelfAttention(
        (query_key_value): Linear(in_features=4096, out_features=4608, bias=True)
        (core_attention): CoreAttention(
          (attention_dropout): Dropout(p=0.0, inplace=False)
        )
        (dense): Linear(in_features=4096, out_features=4096, bias=False)
      )
      (post_attention_layernorm): RMSNorm()
      (mlp): MLP(
        (dense_h_to_4h): Linear(in_features=4096, out_features=27392, bias=False)
        (dense_4h_to_h): Linear(in_features=13696, out_features=4096, bias=False)
      )
    )
  )
  (final_layernorm): RMSNorm()
)
##########
ModuleList(
  (0-27): 28 x GLMBlock(
    (input_layernorm): RMSNorm()
    (self_attention): SelfAttention(
      (query_key_value): Linear(in_features=4096, out_features=4608, bias=True)
      (core_attention): CoreAttention(
        (attention_dropout): Dropout(p=0.0, inplace=False)
      )
      (dense): Linear(in_features=4096, out_features=4096, bias=False)
    )
    (post_attention_layernorm): RMSNorm()
    (mlp): MLP(
      (dense_h_to_4h): Linear(in_features=4096, out_features=27392, bias=False)
      (dense_4h_to_h): Linear(in_features=13696, out_features=4096, bias=False)
    )
  )
)
##########
GLMBlock(
  (input_layernorm): RMSNorm()
  (self_attention): SelfAttention(
    (query_key_value): Linear(in_features=4096, out_features=4608, bias=True)
    (core_attention): CoreAttention(
      (attention_dropout): Dropout(p=0.0, inplace=False)
    )
    (dense): Linear(in_features=4096, out_features=4096, bias=False)
  )
  (post_attention_layernorm): RMSNorm()
  (mlp): MLP(
    (dense_h_to_4h): Linear(in_features=4096, out_features=27392, bias=False)
    (dense_4h_to_h): Linear(in_features=13696, out_features=4096, bias=False)
  )
)
Reading decoder layer 0
['T_destination', '__annotations__', '__call__', '__class__', '__delattr__', '__dict__', '__dir__', '__doc__', '__eq__', '__format__', '__ge__', '__getattr__', '__getattribute__', '__getstate__', '__gt__', '__hash__', '__init__', '__init_subclass__', '__le__', '__lt__', '__module__', '__ne__', '__new__', '__reduce__', 
…
